PyTorch/pytorch-model-python/epoch-39.pth (torch, 5836 bytes, 7 tensors)

weight f4 [7, 4]
-0.2735292 0.527469 -0.14021267 0.096210286 -0.015798897 0.95292014 -0.20281285 0.17358401
0.09392325 -1.2728866 -0.055274334 -0.06098507 0.0046150973 1.0505011 0.044364 -0.0449429
-0.28589854 -0.91801125 -0.15881324 0.11237438 0.010186882 1.2827009 0.029113302 -0.03270997
-0.2462356 -0.8485435 0.2818412 -0.012398174
00000000: 050c 8cbe 3508 073f e993 0fbe e609 c53d
00000010: b06c 81bc 93f2 733f 2cae 4fbe 02c0 313e
00000020: d55a c03d f3ed a2bf 5767 62bd 7bcb 79bd
00000030: 3e3a 973b d276 863f 07b7 353d 0c16 38bd
00000040: 4b61 92be c902 6bbf f09f 22be 8a24 e63d
00000050: e1e6 263c 8b2f a43f 057f ee3c e4fa 05bd
00000060: 2f25 7cbe 263a 59bf 7d4d 903e b621 4bbc

bias f4 [7]
0.45988044 0.81272125 0.31480592 0.5831551 -0.22477253 0.6918672 0.656479
00000000: 7375 eb3e 800e 503f 3e2e a13e a749 153f
00000010: c52a 66be 351e 313f 020f 283f

weight f4 [7, 7]
0.4882196 0.7777922 -0.39509198 1.8893865 -0.42038658 2.243898 0.17547211 0.4497944
0.60898083 -0.36352488 1.5322121 -0.38761762 2.2264123 0.193238 0.4842355 0.84396803
-0.5931913 1.7528073 -0.3689461 2.3367546 -0.08332058 -0.51988333 -0.7612254 0.5459897
-1.3404328 0.39758128 -1.7826732 0.40627435 -0.35011303 -0.42516962 0.64644027 -1.5467272
0.3469008 -1.9484471 0.51835895 -0.24712023 -0.5043002 0.5928398 -1.630668 0.61537975
-1.9987855 0.36755338 0.57328135 0.92155534 1.5745584 1.8653455 0.35384092 1.8391651
0.98193514
00000000: ebf7 f93e 641d 473f 7f49 cabe 6bd7 f13f
00000010: e93c d7be 069c 0f40 f6ae 333e 744b e63e
00000020: 2be6 1b3f ef1f babe 871f c43f d175 c6be
00000030: 8a7d 0e40 2fe0 453e b7ed f73e 4a0e 583f
00000040: 63db 17bf fd5b e03f 81e6 bcbe 638d 1540
00000050: fba3 aabd 1317 05bf abdf 42bf fbc5 0b3f
00000060: 4d93 abbf c68f cb3e a32e e4bf 3103 d03e
00000070: 0442 b3be d5af d9be 1c7d 253f 28fb c5bf
00000080: fb9c b13e b766 f9bf 2cb3 043f 160d 7dbe
00000090: d119 01bf 59c4 173f bbb9 d0bf 8789 1d3f
000000a0: 34d8 ffbf f52f bc3e 91c2 123f 0deb 6b3f
000000b0: 218b c93f a4c3 ee3f a32a b53e c369 eb3f
000000c0: 1a60 7b3f

bias f4 [7]
0.11143252 0.39914322 0.23622942 0.15258405 0.34324455 0.049677026 1.2179576
00000000: bc36 e43d 805c cc3e 20e6 713e fe3e 1c3e
00000010: c0bd af3e 237a 4b3d 09e6 9b3f

weight f4 [7, 7]
1.7700804 1.2698706 2.4649184 -1.2570906 -0.3670961 -1.3733928 0.123811014 0.23692915
-0.038102034 -0.26848832 0.18262592 -0.17423977 -0.24836761 -0.31260103 -0.27315703 0.29475138
0.15736684 0.28178474 -0.15410607 0.23282264 -0.14816022 -1.1391411 -0.73509854 -2.8780942
1.3943038 1.1945478 1.5989057 0.31586176 1.2710718 1.2537307 2.849024 -1.073883
-0.7584398 -0.99178654 0.22758792 1.7806016 0.9221377 2.4464319 -1.0396823 -0.829985
-1.3782123 0.30264616 -1.0507315 -0.5130862 -2.4478986 1.4940271 1.1302825 1.3668287
0.543568
00000000: ff91 e23f 1f8b a23f 39c1 1d40 58e8 a0bf
00000010: 05f4 bbbe 56cb afbf a190 fd3d 8e9d 723e
00000020: e110 1cbd 4d77 89be 4a02 3b3e e96b 32be
00000030: 1454 7ebe 3e0d a0be 3ddb 8bbe a7e9 963e
00000040: c624 213e 1746 903e fbcd 1dbe 0f69 6e3e
00000050: 50b7 17be 60cf 91bf 6b2f 3cbf b232 38c0
00000060: 8c78 b23f f1e6 983f f1a8 cc3f a2b8 a13e
00000070: 7bb2 a23f 3f7a a03f 6956 3640 0075 89bf
00000080: 1c29 42bf b9e5 7dbf cf0c 693e c1ea e33f
00000090: 3711 6c3f 5792 1c40 4f14 85bf e679 54bf
000000a0: 4369 b0bf 70f4 9a3e 5f7e 86bf 9e59 03bf
000000b0: 5faa 1cc0 483c bf3f 19ad 903f 3ef4 ae3f
000000c0: 4627 0b3f

bias f4 [7]
0.20258065 -0.04206289 -0.2918127 0.5451217 -0.012660665 0.016138049 0.5473377
00000000: 4d71 4f3e 234a 2cbd 7968 95be 198d 0b3f
00000010: ae6e 4fbc f133 843c 531e 0c3f

weight f4 [1, 7]
3.001869 -3.2735094e-05 0.101392865 -2.006174 3.5818818 3.6250086 -1.4400675
00000000: 9f1e 4040 0a4d 09b8 10a7 cf3d 2865 00c0
00000010: 8d3d 6540 2400 6840 2254 b8bf
