PyTorch/pytorch-model-python/epoch-62.pth (torch, 4306 bytes, 5 tensors)

weight f4 [7, 4]
00000000: d681 a4bd cd44 59bf d729 4dbd f159 083e
00000010: 01b1 08bd bd9e 713f fdb6 21be a8be 1e3e
00000020: 24f6 2c3e ef61 8bbf 836b 30be 8d73 f7bd
00000030: 3158 1dbd 6e31 5b3f d2c0 58bc 73ca 38bd
00000040: e9fb 14be f64a afbf caa6 4c3d 27c3 313d
00000050: 7d87 a23d f630 853f 9a26 b33d add3 cebd
00000060: 9ed5 05be aa0b 613f 5705 003e 45de 54bd
-0.08032577 -0.84870607 -0.05008873 0.1331556 -0.03337193 0.9438284 -0.1579246 0.15502417
0.1689077 -1.0889262 -0.17228512 -0.120825864 -0.038414184 0.856223 -0.013229566 -0.045114946
-0.14549221 -1.3694751 0.04996375 0.043399002 0.079359986 1.0405567 0.08747597 -0.10098968
-0.1306977 0.8790842 0.12502037 -0.051969785

bias f4 [7]
00000000: a273 593c 68c4 463f 5792 803e fa00 2f3f
00000010: af70 86bd 2dbe 493f 993d 4d3f
0.013272198 0.7764344 0.25111648 0.68360865 -0.065644614 0.7880581 0.80172116

weight f4 [7, 7]
00000000: d8dd 923e 30d4 7e3d e78b 4bbe 5fd3 e23f
00000010: 12b6 cc3e 1bd8 d13f 6860 abbd b8e0 c33f
00000020: 09e8 05c0 8927 263f 8bc2 023f 03f8 f03f
00000030: 1d2d a43d e9ab adbf 9cfa 5a3f f641 01bf
00000040: b33a 15bb 30be 0d40 377b b43f 3cfe 0d40
00000050: 3a65 30bf fc8e 57bf 32cc 1a40 8872 83be
00000060: e7e5 5ebe 446e e9bf 01b1 ca3e 711d f73f
00000070: 72c8 1ebe 6067 b33f e50b 9dbe bf8c 653f
00000080: 20ee 81bf a345 873f 6f2a 813f cdf1 9fbf
00000090: 64c2 0940 041a 443d b743 dbbf 2ddb 1fc0
000000a0: 8a0b c3be bf68 5c40 f2ec 5a3f 6e27 d2bf
000000b0: f452 353f 95b6 f7be 6a74 a83f 8f7a 1cbf
000000c0: b302 37bf
0.28684878 0.062214077 -0.19877587 1.7720755 0.3998266 1.6394075 -0.083679974 1.5302954
-2.0922873 0.64904076 0.510781 1.8825687 0.08016417 -1.3568088 0.8553865 -0.50491273
-0.0022770583 2.2147331 1.4100102 2.2186422 -0.6890446 -0.8420255 2.418713 -0.25673318
-0.21767388 -1.8236775 0.39588168 1.930586 -0.15506151 1.4015923 -0.30673137 0.89667886
-1.0150795 1.0568126 1.0091075 -1.2495667 2.1524897 0.047876373 -1.713004 -2.4977524
-0.3809474 3.4438932 0.855178 -1.6418283 0.708297 -0.48381487 1.3160527 -0.6112451
-0.71488494

bias f4 [7]
00000000: 968c 1abd f5c0 563e ceb8 803e 1d79 b83e
00000010: 23ec 933e b533 3e3f 8de5 b23d
-0.03773173 0.20972045 0.25140995 0.36029902 0.28891096 0.7429765 0.087351896

weight f4 [1, 7]
00000000: 9d04 4140 970e 9740 96d3 4240 c3a0 24c0
00000010: a808 5ebf bc83 52c0 0ae0 2140
3.0159066 4.720531 3.0441642 -2.572312 -0.8673196 -3.2892904 2.5292993
