PyTorch/pytorch-model/epoch-47.pth (torch, 4306 bytes, 5 tensors)

weight f4 [7, 4]
0	0x3d00b126	0.031418942
1	0xbf8e7f78	-1.113265
2	0xbc58dd5b	-0.013236369
3	0xbdc084c7	-0.09400325
4	0xbdc0de49	-0.094173975
5	0xbf95c709	-1.1701366
6	0xbe2642c2	-0.16236404
7	0x3e1fcfb3	0.15606575
8	0xbe08c6cf	-0.1335709
9	0x3d890d8e	0.066920385
10	0x3b8448cd	0.004036999
11	0x3da7f9ce	0.08201943
12	0x3c78e30d	0.015190852
13	0xbf7891a1	-0.9709721
14	0x3e8c2e4c	0.27379072
15	0xbe5f81c8	-0.21826851
16	0xbd7d7361	-0.061877612
17	0x3f91d58c	1.1393294
18	0xbc79f34d	-0.015255761
19	0xbd1a9d3e	-0.037747614
20	0xbc0b0c78	-0.0084868595
21	0xbf83c2a8	-1.0293779
22	0x3dc6db77	0.09709828
23	0xbde10ae7	-0.109884076
24	0xbd922cfd	-0.07137487
25	0x3f519ff6	0.81884706
26	0xbd71b267	-0.05900803
27	0x3ddc2edf	0.107511275

bias f4 [7]
0	0xbe6cfb1d	-0.23142667
1	0xbe8aec26	-0.27133292
2	0xbec45a47	-0.38350126
3	0xbe2c54b4	-0.16829187
4	0x3f67d3f7	0.9055781
5	0xbe88780b	-0.26654086
6	0x3f3ebacc	0.7450378

weight f4 [7, 7]
0	0x3deeb747	0.11656051
1	0x3dfb6441	0.12274981
2	0xbe2b5e38	-0.1673516
3	0x3cd6688a	0.026172895
4	0xbe3d8b59	-0.18510188
5	0x3e30e26f	0.17273878
6	0xbc2164b7	-0.009850672
7	0xbf139b6d	-0.57659036
8	0xc01c532d	-2.4425766
9	0xc00216b9	-2.032637
10	0xbf22738c	-0.6345756
11	0x402c3e02	2.6912847
12	0xbf82e22b	-1.0225271
13	0x3fbb54b8	1.4635229
14	0xbf3369df	-0.7008342
15	0xc02935d2	-2.64391
16	0xc005ed26	-2.0925994
17	0xbf392738	-0.7232547
18	0x4035c56c	2.8401747
19	0xbf985a28	-1.1902514
20	0x3fbbfccb	1.4686521
21	0xbbad31d3	-0.0052854805
22	0xbdb12b5a	-0.08650847
23	0xbd1b3988	-0.037896663
24	0xbe81bbe1	-0.25338653
25	0xbe289997	-0.1646484
26	0x3bd67cc7	0.0065456363
27	0x3e364bd2	0.1780236
28	0x3f52491b	0.821428
29	0x404632f1	3.0968592
30	0x4034d1e5	2.825311
31	0x3f6485f9	0.89266926
32	0xc002546e	-2.0364032
33	0x3f7e1b1d	0.9926012
34	0xbed1eee0	-0.4100256
35	0xbb50ec5d	-0.0031879165
36	0xbdaae360	-0.083441496
37	0xbe2bfec0	-0.16796398
38	0xbe3e5e10	-0.1859057
39	0xbd8bf4b8	-0.06833786
40	0x3e83205a	0.2561062
41	0x3d49a005	0.049224872
42	0x3f74d43a	0.9563633
43	0xbed10fd4	-0.40832388
44	0xbf809f47	-1.0048608
45	0x3f3682b7	0.71293205
46	0x3f5eae45	0.86984664
47	0x3f90deed	1.1318032
48	0x3eca8fe0	0.39562893

bias f4 [7]
0	0xbe800d24	-0.25010026
1	0x3f6487fb	0.8926999
2	0x3f85a701	1.044159
3	0xbe6d7813	-0.23190336
4	0x3ecb84ba	0.397497
5	0xbe7073c2	-0.23481658
6	0x3eba9d4a	0.36448127

weight f4 [1, 7]
0	0x3df689d7	0.120380096
1	0xc05dd650	-3.4662056
2	0xc0629396	-3.540258
3	0xbe330aa0	-0.17484522
4	0x40406abc	3.0065145
5	0x3e28de5a	0.1649107
6	0xc08fb421	-4.4907384
