PyTorch/pytorch-model/epoch-50.pth (torch, 5836 bytes, 7 tensors)

weight f4 [7, 4]
0.13152967 -1.1043271 0.035820182 -0.0006965803 0.0975256 0.5235288 0.044979498 -0.042573404
-0.113365546 -1.304999 -0.17839603 -0.041719634 -0.024265883 0.88165146 0.10179286 -0.13919324
-0.027497899 1.2724859 -0.04866862 0.049384836 -0.026562182 1.2325953 -0.0057070465 0.00806252
-0.08762745 -1.1610006 0.28071845 -0.0412537
00000000: b7af 063e 975a 8dbf 2fb8 123d b69a 36ba
00000010: 80bb c73d fc05 063f 6c3c 383d 7361 2ebd
00000020: 322c e8bd 350a a7bf 73ad 36be 35e2 2abd
00000030: 3fc9 c6bc e9b3 613f c678 d03d ac88 0ebe
00000040: 4643 e1bc d1e0 a23f bf58 47bd c147 4a3d
00000050: ef98 d9bc afc5 9d3f 2d02 bbbb a918 043c
00000060: 0576 b3bd ab9b 94bf 54ba 8f3e a4f9 28bd

bias f4 [7]
0.24840342 0.4540687 0.013478817 0.6864742 0.74126446 0.6980652 0.31187674
00000000: 775d 7e3e b17b e83e 42d6 5c3c c6bc 2f3f
00000010: 82c3 3d3f 67b4 323f 4fae 9f3e

weight f4 [7, 7]
1.6601365 0.7600368 1.1260327 0.3536487 0.47138637 0.53303236 1.08641 -0.22458625
0.53707564 -0.20282817 1.0823044 1.7223684 1.6274002 0.013442221 -0.21756202 0.43871364
-0.2833066 0.92420197 1.6738453 1.820369 -0.21537681 0.5788423 -0.62063634 0.7078269
-0.33742562 -1.3113208 -1.5337989 0.43452835 0.26058444 -0.30999103 0.7234688 -0.71988803
-1.5071044 -1.6502852 0.44324693 -0.025219183 0.63847613 -0.37767854 0.70324516 1.7752765
1.6758286 -0.37329087 0.2557156 -0.47456765 0.7152628 -0.41574183 -1.4790261 -1.3872615
0.5297977
00000000: 5a7f d43f c691 423f d721 903f 7111 b53e
00000010: 8e59 f13e cf74 083f 7c0f 8b3f f0f9 65be
00000020: ca7d 093f 30b2 4fbe f388 8a3f 9176 dc3f
00000030: a64e d03f c33c 5c3c 94c8 5ebe 139f e03e
00000040: 900d 91be 8098 6c3f 9040 d63f da01 e93f
00000050: bd8b 5cbe 022f 143f 06e2 1ebf 2534 353f
00000060: 0dc3 acbe 5cd9 a7bf 8653 c4bf 807a de3e
00000070: 536b 853e 25b7 9ebe 4035 393f 954a 38bf
00000080: cce8 c0bf 8c3c d3bf 43f1 e23e 7698 cebc
00000090: 2c73 233f 155f c1be e007 343f 433c e33f
000000a0: 8d81 d63f fb1f bfbe 28ed 823e 88fa f2be
000000b0: 761b 373f 1ddc d4be ba50 bdbf c991 b1bf
000000c0: d2a0 073f

bias f4 [7]
1.2569859 0.09780454 0.34405404 -0.13110933 0.037730087 0.61356205 -0.0557076
00000000: eae4 a03f bf4d c83d da27 b03e 8641 06be
00000010: dd8a 1a3d 6712 1d3f a72d 64bd

weight f4 [7, 7]
0.22957876 -1.114926 -1.3867456 1.4103355 1.5374507 -1.1809275 1.3660741 0.26505393
-1.2087233 -1.6648419 1.3928251 1.7883576 -1.2095445 1.2526995 0.20062885 -0.9176646
-1.5045606 1.3434465 1.5151186 -1.257034 1.4796538 -0.037079412 -0.19791597 0.15138966
0.055415716 -0.039786015 -0.25372702 0.012366102 0.12675081 -1.1578411 -1.2173622 1.2224772
1.8355538 -0.91523963 1.4812397 0.7223662 1.5976449 1.7335994 -1.0330716 -1.0439713
1.7771243 -0.98045516 0.04966867 -0.11072751 -0.16842677 -0.19882622 -0.12856802 -0.1952983
-0.2631527
00000000: b216 6b3e e5b5 8ebf e180 b1bf e085 b43f
00000010: 2fcb c43f a228 97bf 84db ae3f 26b5 873e
00000020: 72b7 9abf 8a19 d5bf 1848 b23f e7e8 e43f
00000030: 5bd2 9abf 7558 a03f a671 4d3e 11ec 6abf
00000040: 7195 c0bf 0ef6 ab3f 68ef c13f 7de6 a0bf
00000050: 4c65 bd3f 95e0 17bd 7caa 4abe e405 1b3e
00000060: 97fb 623d a9f6 22bd 82e8 81be 319b 4a3c
00000070: f7ca 013e 2334 94bf 86d2 9bbf 227a 9c3f
00000080: 6df3 ea3f 254d 6abf 4399 bd3f feec 383f
00000090: a17f cc3f 96e6 dd3f b13b 84bf daa0 85bf
000000a0: cf78 e33f 1cff 7abf 6071 4b3d 1bc5 e2bd
000000b0: 1178 2cbe 1a99 4bbe 56a7 03be 47fc 47be
000000c0: f3bb 86be

bias f4 [7]
-0.084632516 -0.001892239 0.053206757 -0.12860279 0.0050866217 0.73078924 -0.06145932
00000000: d053 adbd 0105 f8ba 54ef 593d 73b0 03be
00000010: adad a63b 0115 3b3f c5bc 7bbd

weight f4 [1, 7]
-3.481607 -3.131612 -3.1079695 -0.052801367 -3.4511166 2.2523594 -0.060752902
00000000: a6d2 5ec0 556c 48c0 f9e8 46c0 3f46 58bd
00000010: 18df 5cc0 a826 1040 09d8 78bd
