PyTorch/pytorch-model/epoch-84.pth (torch, 5836 bytes, 7 tensors)

weight f4 [7, 4]
000000 11 ee 01 be b0 83 cb 3e 26 e0 c4 bd af fc a5 3d
       -0.12688471 0.39748907 -0.096130654 0.08104836
000010 41 5d da bb 3e 43 50 3f 94 21 15 be d1 65 f6 3d
       -0.0066639488 0.81352603 -0.1456359 0.12031139
000020 a8 72 9d 3d a8 0c 8b bf 59 b4 1d bd a6 32 28 bd
       0.076878846 -1.0863237 -0.03850207 -0.041063927
000030 b5 2a 37 3b 97 78 64 3f 82 53 e6 3c 28 eb de bc
       0.002794904 0.89246505 0.028115992 -0.02721174
000040 ad 3e 0a be 91 1f 52 bf 59 86 f4 bd 13 c2 bf 3d
       -0.13500471 -0.82079417 -0.11939687 0.093631886
000050 a1 3c aa 3b 88 35 89 3f 28 9c 87 3c a1 a2 95 bc
       0.005195216 1.0719461 0.016553953 -0.018266024
000060 d0 06 16 be 02 42 4c bf e8 21 57 3e d4 84 c1 bc
       -0.14651036 -0.7978822 0.21009028 -0.023622908

bias f4 [7]
000000 e7 00 dc 3e ec e2 26 3f 43 8f 79 3e dd 22 f7 3e
       0.42969438 0.65190005 0.24371056 0.48268786
000010 18 cb 02 be 4c b3 10 3f 59 07 0a 3f
       -0.12772787 0.56523585 0.5391746

weight f4 [7, 7]
000000 c6 c9 d2 3e 75 31 3a 3f 2e 61 b1 be c2 32 01 40
       0.41169566 0.72731715 -0.34644455 2.018723
000010 6f b4 bd be 98 2f 1e 40 66 6e e6 3d b6 5c c3 3e
       -0.37051722 2.471655 0.112515256 0.3815667
000020 66 91 19 3f 0c 46 a0 be 5f d9 dd 3f c2 ff af be
       0.59987485 -0.31303442 1.7331961 -0.34374815
000030 62 3e 1c 40 e6 cf 05 3e c8 da d0 3e eb 20 48 3f
       2.4413075 0.13067588 0.40791917 0.7817523
000040 e5 4b ff be d1 66 f9 3f 20 a7 ac be 31 98 25 40
       -0.4986259 1.9484502 -0.33721256 2.587414
000050 62 a1 be bd a2 87 dd be f4 c5 32 bf 9e e4 fa 3e
       -0.09308125 -0.43267542 -0.698333 0.49002546
000060 c9 6d ca bf c4 c7 b7 3e 58 8c 06 c0 f8 8e b5 3e
       -1.5814754 0.35894597 -2.102316 0.3546064
000070 a6 3f 98 be 18 29 d9 be 68 01 15 3f 98 7c d9 bf
       -0.2973606 -0.42414165 0.5820527 -1.6991148
000080 0a 58 a4 3e 9b 7a 0b c0 59 5c e5 3e 11 f0 63 be
       0.32098418 -2.1793582 0.44797018 -0.22259547
000090 93 80 ff be 71 55 05 3f a4 03 e5 bf 9b d1 05 3f
       -0.49902782 0.520835 -1.7891736 0.5227296
0000a0 e9 e4 0f c0 8b 0f a4 3e 71 52 04 3f 70 fd 85 3f
       -2.2483466 0.32043108 0.51688296 1.0467968
0000b0 21 d6 c5 3f df 5e 03 40 43 3f 96 3e 56 06 0a 40
       1.5455972 2.0526655 0.2934514 2.1566367
0000c0 fc 1c 82 3f
       1.0165095

bias f4 [7]
000000 2e 3b d8 3d c6 1d ab 3e e5 ec 4d 3e 77 25 00 3e
       0.10558163 0.33421153 0.201099 0.12514292
000010 72 72 93 3e 60 31 2f 3d 7c 4e ac 3f
       0.28798252 0.042771697 1.3461452

weight f4 [7, 7]
000000 d4 dc f3 3f 23 48 ac 3f 0c 03 42 40 a4 4e b0 bf
       1.9051766 1.3459514 3.031436 -1.3773999
000010 7b 45 f5 be 98 f2 b3 bf 63 19 3d 3e b6 4f 3a 3e
       -0.47904572 -1.4058409 0.18466716 0.1819447
000020 86 b2 ef bc cb 20 53 be 1f 9c 0f 3e f2 03 09 be
       -0.029259931 -0.20617978 0.14024399 -0.13380411
000030 5f 4e 43 be 27 d1 75 be f3 cc 56 be f2 c7 67 3e
       -0.19072865 -0.24005567 -0.2097662 0.22634867
000040 8e 7e f7 3d b9 95 5d 3e 4b 5e f2 bd 43 15 37 3e
       0.12084685 0.21639146 -0.11834391 0.17879204
000050 65 04 e9 bd 9a 18 a6 bf 03 24 47 bf 41 8e 50 c0
       -0.11377791 -1.2976258 -0.77789325 -3.2586825
000060 00 25 d8 3f 5c e8 a7 3f 77 a9 de 3f 11 79 b8 3e
       1.6886292 1.3117785 1.7395467 0.36029866
000070 2c a5 c0 3f 32 f8 a8 3f 80 b3 52 40 f3 f9 9b bf
       1.5050406 1.3200743 3.2922058 -1.2185653
000080 5c e3 45 bf f8 2d 8d bf 35 8a 82 3e e5 a0 f3 3f
       -0.7730005 -1.1029654 0.2549607 1.9033476
000090 95 cb 88 3f 6d 8a 3f 40 45 c3 98 bf 5f 21 54 bf
       1.0687128 2.9928238 -1.1934592 -0.8286342
0000a0 b5 ff b2 bf 18 a8 9e 3e 3f f4 9b bf ee 3f 1a bf
       -1.3984286 0.3098762 -1.2183913 -0.602538
0000b0 86 06 39 c0 c9 e7 df 3f 74 b0 a0 3f 3e 44 c6 3f
       -2.8910232 1.749261 1.2553849 1.5489576
0000c0 bc cc 08 3f
       0.534374

bias f4 [7]
000000 fd 36 69 3e 6f 4e 04 bd 27 78 65 be f7 72 16 3f
       0.22774883 -0.032301363 -0.22409116 0.5876917
000010 ad 47 5d 3d 85 27 91 3d db 36 16 3f
       0.054023433 0.07087616 0.5867745

weight f4 [1, 7]
000000 db 14 75 40 ff c2 d2 b7 4e 76 9f 3d 52 fa 1a c0
       3.829398 -2.5124753e-05 0.07786237 -2.4215283
000010 82 10 87 40 be 9d 89 40 87 64 de bf
       4.220765 4.3005056 -1.7374429
